CIFAR10/resnet.ckpt (torch_old, 803333 bytes, 77 tensors)

conv.weight f4 [16, 3, 3, 3]
00000000: ee50 bb3d 8698 993d 3dff 183c 7a58 bd3b
00000010: c4e1 e13c 79d0 5c3d 103e bf3d 9c14 59be
00000020: 7111 14be 6bc4 e8bd adb7 1fbe 5180 a23d
00000030: e8a0 a13e 6a73 3bbc 2e38 8c3d fcbc 993e
00000040: b5d4 62be cbb3 44be c24b a13b 5aff 2a3e
00000050: e30f f3bc f49b 803e 0761 223c af33 08bd
00000060: a5dd 883d 5632 81be a36f 4bbe 7e4a d53d
00000070: 1bf0 003c bc9a b9bd 68da 503e 948a 18be
00000080: 658b cd3c 6d77 ea3c 3fbb 32bb 14a2 6d3a
00000090: 9354 fcbd cdf6 bf3d 7670 f4bd 8702 8e3d
000000a0: f199 40bf 6cb2 8d3d 033f c3bd e1a3 67be
000000b0: 14b5 e13d 6e64 cebd f2c9 653e f969 ff3d
000000c0: 4dbd abbd 1cc6 f4bd d376 3d3d d5fa 343d
000000d0: 33cf a1bd 46c4 d63d 051d 4c3e 05b1 703e
000000e0: ada8 043e 7bba 52be 8772 82be a133 8cbe
000000f0: 39d3 953d 472a 34be 23e3 153e 2357 1a3c
00000100: a536 823e 2eb9 123d 5902 073d 7f07 5a3c
00000110: 4eb5 1fbe 1004 5cbe 7ea3 fc3d d5d4 d1bd
00000120: af3a d6bd d5a1 98bc c471 6b3e 5495 f83d
00000130: 8732 063e f5fc 32be 0a91 31bb 9aac 213e
00000140: 68b0 edbd b2f7 23be a09b 133e 3fe0 833e
00000150: d1c5 28be 0ab1 8abe b30e 413e 7af4 663d
00000160: 3939 9bbc 4860 d1bd 2f4a c5bd b539 223e
00000170: b2f8 e73b 4f60 62bd c251 8fbe b33f 423e
00000180: 2127 2f3d ee8f 1abc df9f aa3c ab5a 5cbe
00000190: 1bf7 f33d a7b7 4a3e 4210 ad3c 24dc e93c
000001a0: 0c3b 03bd ce88 83bc 3365 39bd a776 e93c
000001b0: 2a5a 8c3e 67bc c93d c73e 27bd 3b15 013e
000001c0: d014 62be 43ae f6bd 5dd1 a73d 56fd 13be
000001d0: cc40 3dbe 5384 183e fa2e 92be 9b48 353e
000001e0: 79b1 093e 4bd0 933d a721 de3d f383 48be
000001f0: 298f 0c3e 9851 13be 2015 4abe 6f79 68be
00000200: ae39 8cbc 3c15 fabd 1a61 e3bd b848 8d3e
00000210: 69a6 e13d 0634 573c b32b 893e 16ec 6dbe
00000220: 933c 4dbe 26b0 9ebd 68ed 80be a7bc 39be
00000230: 118f e93d 5d8e be3d 51b2 96bd 7318 11be
00000240: 12eb a6bd 8694 d4bd fd90 05be 6ee0 223e
00000250: 10c9 203e 5268 873d ee81 30be 6ac4 7dbd
00000260: 37f2 9d3d 01a1 813d 90a0 5c3e fa8e 05be
00000270: fffe ac3d 4177 943e 2082 993e e6da 4e3e
00000280: a86e 1f3e cc04 703c ac4c e83d 2668 25bd
00000290: 77b7 0c3e 3c4d 81be cb7c 513e 359b 373e
000002a0: e057 15be c8b6 bcbc cc8c 2c3e b5f0 1ebe
000002b0: 0485 8f3d 33ba c1bd 144e 17be ca73 d7bc
000002c0: 8058 ce3d 8129 4ebe 314c 28be 0c9e 703e
000002d0: fa85 763e a3f7 3fbd aa04 edb9 6cd5 8abd
000002e0: 3fc7 063e 37ac 543d a76a ef3c 042f 47be
000002f0: 3e3f 9bbd 9799 7fbd c3b5 3d3e 9dac 07bd
00000300: 2025 823d be39 023d 4d3b c2bd 7c64 31be
00000310: 0494 2a3e 84b0 0fbc e50d 58bd 4d9f f23c
00000320: 7f03 65bd 005f 963d ccf6 0abd 9336 a7be
00000330: 95a1 1c3e b0f4 563d 5117 8b3d 0a25 a6bd
00000340: 1a83 adbb 80e5 96bd 58c9 1b3e 3899 1cbe
00000350: 4fd2 6abe de22 683e 7422 563e 23f9 bc3b
00000360: 205b 3dbe 15d5 c73d 286d 35ba 7889 abbb
00000370: 994c 4ebe 0d0a 383e 2011 08be 297d 273e
00000380: 5be8 16be 7eee 74be 7498 b33d 7173 4abe
00000390: e170 c6bb 8e13 a63d b624 5a3e 44a7 2e3e
000003a0: e0e4 8c3e b42b 553b 104e 44be b4be 293e
000003b0: a577 4dbe 257d 8ebd 1045 ecbb 5c19 b63c
000003c0: 2bb0 3dbd 0759 ef3d d680 8dbd caa3 663e
000003d0: 5334 4a3d 257e 963e 771a 50be fc4a 0fbe
000003e0: e300 133e 2f87 123e 06d7 d9bd 212c b13a
000003f0: e3cc 493e 725f 6f3e 66ba e73d 5b50 2c3e
0.091462955 0.07499795 0.009338197 0.0057783695 0.027573474 0.053909753 0.09338009 -0.21199268
-0.14459778 -0.11365589 -0.1559741 0.07934631 0.31568074 -0.011441091 0.06846653 0.30026996
-0.22151454 -0.1920921 0.004922361 0.16698971 -0.029670661 0.25118983 0.009910828 -0.033252414
0.066829 -0.25233716 -0.19866805 0.10414599 0.007869746 -0.09062716 0.20395815 -0.14896613
0.025090883 0.0286214 -0.0027272252 0.0009064984 -0.12320819 0.093732454 -0.11935513 0.06934076
-0.75234896 0.06918797 -0.09533503 -0.22621109 0.11020866 -0.10077749 0.22440317 0.124713846
-0.08385716 -0.11951849 0.046255898 0.044184525 -0.07900848 0.10486655 0.19932945 0.23505028
0.1295497 -0.20578949 -0.25478002 -0.2738314 0.07315678 -0.17594253 0.14637427 0.009420189
0.25432315 0.035821132 0.032961223 0.013307451 -0.15596506 -0.21485925 0.12335871 -0.102456726
-0.10460412 -0.018631855 0.22992617 0.12137857 0.13105212 -0.17479308 -0.0027094507 0.15788499
-0.116059124 -0.16012457 0.14414835 0.25757024 -0.16481711 -0.27088195 0.18853264 0.056385495
-0.018948184 -0.10223442 -0.0963329 0.15842326 0.0070792073 -0.05526763 -0.27992064 0.18969612
0.042761926 -0.00943373 0.020828186 -0.21518962 0.11912366 0.1979662 0.021125916 0.028547354
-0.032038733 -0.016056444 -0.045262527 0.02849896 0.2741254 0.09850388 -0.040831354 0.12605755
-0.22078252 -0.120449565 0.0819423 -0.14452109 -0.1848175 0.14894228 -0.28551465 0.17703478
0.13446607 0.07217463 0.108462624 -0.19581585 0.13726486 -0.14386594 -0.19734621 -0.22702573
-0.017117348 -0.122110814 -0.11102505 0.27594543 0.11018068 0.013134962 0.26791152 -0.23234591
-0.20042638 -0.077484414 -0.25181127 -0.18138371 0.11404241 0.093044974 -0.0735823 -0.14169483
-0.08150305 -0.10379891 -0.1304359 0.15905926 0.157017 0.066116944 -0.17237064 -0.061954893
0.077122144 0.06329537 0.21545625 -0.13042822 0.08447074 0.28997234 0.2998209 0.2020069
0.15569556 0.014649581 0.11342749 -0.040382527 0.13741861 -0.25254238 0.20457761 0.179303
-0.14584303 -0.023036376 0.16850585 -0.1552151 0.070077926 -0.09459343 -0.14775878 -0.02630033
0.10075474 -0.2013302 -0.16435315 0.2349779 0.24074546 -0.046867024 -0.00045207638 -0.06778988
0.13161944 0.05192205 0.02922566 -0.19451529 -0.07580422 -0.062402334 0.18526368 -0.0331236
0.06354737 0.03179335 -0.09483967 -0.17323488 0.16658026 -0.008770112 -0.052747626 0.029616976
-0.055911537 0.073423386 -0.03392677 -0.32658824 0.15296014 0.052479446 0.067915566 -0.081125334
-0.0052951695 -0.073679924 0.15213525 -0.15292823 -0.22931789 0.22669551 0.2091158 0.005767004
-0.18491793 0.09757439 -0.00069208676 -0.0052348934 -0.20146407 0.17972584 -0.13287783 0.16356339
-0.14737074 -0.23919103 0.087693125 -0.197706 -0.0060559367 0.081091985 0.21303067 0.17055994
0.27518368 0.003252727 -0.19170403 0.16576654 -0.20065172 -0.06957463 -0.0072103813 0.02222889
-0.046310585 0.116869025 -0.06909339 0.22523418 0.049366307 0.29393116 -0.20322596 -0.13993448
0.14355807 0.14309381 -0.106367156 0.001351718 0.19707064 0.23376253 0.113148496 0.16827528

bn.weight f4 [16]
00000000: 3230 343f 513e 043f 2d33 be3e a35a f93e
00000010: 6224 ce3e 8a7a a63e cca0 3d3e cfc2 db3e
00000020: dfb9 243f 2a0c fd3d acd1 253f 1074 cf3e
00000030: 4a3f 953e 8a89 853e da58 f03e 8e4a da3e
0.7038604 0.5165759 0.3714842 0.48701963 0.40262133 0.32515365 0.1851837 0.42922065
0.64346117 0.12355836 0.6477306 0.40518236 0.29149848 0.26081496 0.46942788 0.42635006

bn.bias f4 [16]
00000000: f1bb 513e a3d9 39bd b678 bb3e 8ea6 a63d
00000010: a82e fc3e 29ff 623d cec1 973c 5253 503e
00000020: 94a1 3c3e f2b8 a9bd 8302 723e f06a de3d
00000030: e0f5 fd3d 9a71 bf3d f782 b23e cc4c fabd
0.2048185 -0.04537357 0.36615533 0.081372365 0.49254346 0.05541912 0.01852503 0.20344284
0.18421012 -0.08287229 0.2363377 0.108602405 0.124004126 0.0934784 0.34865543 -0.12221679

bn.running_mean f4 [16]
00000000: 0fb4 c83c 5b69 92be 1d59 d43c baa3 27bc
00000010: 0cc3 b73a 350d b63c e206 373c 2c01 643c
00000020: 13bc 0fbd 0867 2a3f 5509 413b 3abd 2ebb
00000030: 6bb4 83bc b785 bcbb 4d93 16bc 48d2 3fbe
0.024499921 -0.28596005 0.025921399 -0.010231907 0.001401992 0.022223094 0.011171075 0.013916295
-0.03509147 0.66563463 0.0029455025 -0.002666308 -0.01607724 -0.0057532447 -0.009190393 -0.1873256

bn.running_var f4 [16]
00000000: 2c6f 093d 60b8 313d dd18 ac3c be66 b23c
00000010: eb33 bb3b e0b1 1e3d ee14 b33c aa80 b13c
00000020: 1bd4 9f3c 1c39 383e c9f8 093c f5ef e33c
00000030: b5b7 a73c aa3d 293c 3df6 5b3b c6d0 fc3c
0.033553287 0.043388724 0.02100795 0.021777507 0.005712976 0.038743854 0.021860566 0.021667797
0.01951032 0.17990535 0.008421131 0.027824381 0.02047334 0.010329643 0.0033563517 0.03086127

layer1.0.conv1.weight f4 [16, 16, 3, 3]
00000000: f30b 14be 1b51 2e3d 45f1 663d d367 6abd
00000010: 2b8f 0bbe 8752 d2bc bf60 3f3d f63e e9bd
00000020: 9514 8d3d 2f73 b3bc 5ad5 123e 26a3 0c3d
00000030: 21d3 cb3c 08c4 52bd f0a5 673b 1f03 9f3d
00000040: 06d9 94bc bc88 c73c 5b1c 9d3d 8b1a 493d
00000050: b046 953d 2111 aabc 613d 26bd ab26 8dbd
00000060: a5b8 8abe 8d4e 66be 83b4 05be a381 473c
00000070: fe6b 303e 54ea ab3d c2e9 b5bc 8d95 db3d
00000080: 6faa 993e 9b1e dbbd dd4b 96bc a1c2 17be
00000090: ea33 8f3d 9349 a93d b08b 0ebd 491e 82bc
000000a0: 219a f03d b3b7 413d 370b b33d 79e8 7cbe
000000b0: 4be3 8ebd 1445 bebd 2405 b2bd 6810 debd
000000c0: 8a3f eabc 578e 75bd 8eb2 023d cfa0 0c3d
000000d0: 8886 2a3d e235 03bd 1ed0 50bc 7402 d03b
000000e0: 0f7c 953d 7c78 d4bd a012 7cbc 0ab5 10be
000000f0: ca34 32be 96f9 b83a 697c 9abe f54f 0d3d
00000100: 6c62 363e 7599 82bd 45c5 0fbd 5044 853d
00000110: eee0 f93c ffa3 8bbc aefa a23d a280 cc3d
00000120: 0c32 d03c e1f3 a33d a6c3 ff3d f86c 01be
00000130: e57b c83d b2c5 403d ddbb 023d 0408 69bd
00000140: 7e5e 3cbe d46a 77be 04e6 babc 189c 13bd
00000150: 8303 1fbe 230d 01be 66f5 d03c f5a0 dd3d
00000160: 2287 c63d bc61 0c3e 961d fcbd 604e 0fbe
00000170: 93cf 74be caef 973c 4bc2 7f3d 5ad9 d7bc
00000180: dcc8 713d 5c7f 183e 6489 703e 50bb bc3d
00000190: 67f2 823d 9cd4 ca3d 812c 8c3c 955a 16be
000001a0: 0d98 3bbe c8aa 18bd a4c4 57bd f588 d9bd
000001b0: 942d a43e 627c 983d a35d fbbc a5d6 563e
000001c0: 8fe4 353e ff93 6ebc 4a1b 15be c584 a9bd
000001d0: b0e3 c93c 6ff3 b43d 7f58 133e cc1d ea3d
000001e0: 8704 bfbd 0000 743c 0301 76bd 3138 57be
000001f0: d606 6abc e8d7 51be 80f2 e7bd 3680 e2bd
00000200: a361 ae3d 1e24 19be e189 a83e d599 d13d
00000210: 26a6 183d ed7e 10bd 415b 043e 7998 9f3d
00000220: bc99 14be ac00 92bc a9a4 c1bd 06cf 4ebd
00000230: e16b 99bd 9fd4 b5bd 2b40 09bc 238d 09be
00000240: c77d 38be 9299 5ebd 3e07 0a3e 3a0c b83d
00000250: 345c 4bbe ebd8 5dbd 613c 983b 561b 623c
00000260: 80aa e0bc 5bff d43b 9df3 9bbd c59f 3ebd
00000270: 225d 19bc 102a 32be ddec 48be a817 293d
00000280: fee6 18bd 569d 94bd b797 45be b734 fe3d
00000290: fbd1 92bd b38f 1abd 2156 6e3e 1ed1 3e3d
000002a0: 0516 f5bd 15a9 13bd 2f48 43be ec7c d5bd
000002b0: ffef 29be 76e7 37bc 10a0 923e b9cb 9abb
000002c0: 77cd d8bd aef0 bebd 3eb6 82bd 6577 9fbd
000002d0: 7a28 0b3e d524 f63b 9f60 2dbd df2f e73b
000002e0: 3f91 84bd 3cf2 e03c 7a54 073e 1c9b 20be
000002f0: 8dab 073e 8b1a e23c a4f9 0b3c 8719 fc3d
00000300: 4a03 a2bc bdf7 2a3e 5272 0a3e 95b5 babd
00000310: 6e3d 103d 8e84 313d e61c a43d a423 32bd
00000320: 87df 2cbd 9564 0c3d 95f4 443d 61f2 ad3d
00000330: 4aa5 943c 7afb 73bd 10bd a9bd ea64 0fbe
00000340: b6a4 db3d d930 e2bd fe18 96be b6d0 163c
00000350: 5a6c 48bd 8cb5 1fbe 8315 613e f5c5 87be
00000360: b407 dbbd cd8a 1bbd cd3f 8b3d 70c0 eb3d
00000370: ead1 d5bc 7381 373d fe3b 77bb 6ae9 0cbc
00000380: 7787 9bbc ebd4 543d a074 fcbc 6fd5 923c
00000390: 625c 853d 33aa 5ebd 7316 5cbd bedc a5ba
000003a0: ac36 9a3c 4019 cdbc 29b9 ccbd 5b3c fb3c
000003b0: 4bff cf3b 11f2 f3bc ba94 f0bd 156a 5bbc
000003c0: e97d 4c3c 9df9 a13e 7f1a 523b 8c86 8e3e
000003d0: 48d2 ae3d c9c0 f73c 3457 f4bc e392 843e
000003e0: 2f2e db3d cc63 a4bd af61 42bd 4068 0c3d
000003f0: c24b 463d bce4 283e 844e c63c 2338 d0be
-0.14457683 0.042557817 0.056382436 -0.05722792 -0.13628833 -0.025674118 0.046723124 -0.11388962
0.06888691 -0.02190551 0.143392 0.034335278 0.024880948 -0.05145648 0.003534671 0.07764267
-0.018169891 0.024357192 0.07671424 0.04909758 0.07288873 -0.02076012 -0.04058588 -0.06892141
-0.27093998 -0.22490902 -0.13057141 0.012176904 0.17228696 0.08394304 -0.022206191 0.10721884
0.30012843 -0.10699197 -0.018346721 -0.14820339 0.06992324 0.08265986 -0.034801185 -0.015883582
0.11748148 0.04729433 0.087423734 -0.24698056 -0.069769464 -0.09290519 -0.08692387 -0.10842973
-0.02859475 -0.0599502 0.031908564 0.034333047 0.041632205 -0.03203381 -0.0127449315 0.0063479487
0.07299053 -0.10374543 -0.0153853 -0.14131561 -0.1740295 0.0014112468 -0.30173042 0.03450008
0.17810982 -0.06376926 -0.03510024 0.0650717 0.030502763 -0.017045973 0.079579696 0.09985472
0.02541449 0.080055006 0.12488489 -0.12639225 0.09789256 0.047063537 0.03191744 -0.05689241
-0.18395421 -0.24161845 -0.022814758 -0.036037534 -0.15528683 -0.12602668 0.02550764 0.10821716
0.09693743 0.13709158 -0.123103306 -0.13994741 -0.23907308 0.018546958 0.06244115 -0.026348758
0.059029445 0.14892334 0.2348991 0.092154145 0.06393891 0.09903833 0.017111065 -0.14682992
-0.18319722 -0.037272245 -0.052677765 -0.106218256 0.32066023 0.07445599 -0.030684298 0.20980318
0.1776297 -0.014561652 -0.14561191 -0.08277277 0.024644703 0.08835494 0.14389227 0.114314646
-0.093270354 0.014892578 -0.06005956 -0.21017529 -0.014283856 -0.20492518 -0.1132555 -0.110596105
0.085147165 -0.14955184 0.32917693 0.10234419 0.037267826 -0.035277296 0.12925436 0.07792754
-0.1451177 -0.017822586 -0.094552346 -0.0504904 -0.074912794 -0.08878445 -0.008377115 -0.13432746
-0.1801673 -0.054345675 0.13479325 0.08986707 -0.19859391 -0.054161947 0.0046458696 0.013800463
-0.02742505 0.0065001673 -0.07614825 -0.046539087 -0.0093605835 -0.17398858 -0.19621606 0.041282326
-0.037329666 -0.07256572 -0.19296156 0.12412398 -0.07168957 -0.0377347 0.23275043 0.04658615
-0.119670905 -0.03604992 -0.19070505 -0.104242176 -0.16595457 -0.011224618 0.28637743 -0.0047239927
-0.10586064 -0.0932325 -0.06382416 -0.077864446 0.1358966 0.007511715 -0.042328473 0.007055267
-0.06473016 0.027459256 0.13215819 -0.1568417 0.13249035 0.027600547 0.008543406 0.123095565
-0.019776959 0.16696067 0.13520172 -0.09116665 0.035214834 0.043339305 0.080133244 -0.04349102
-0.04220536 0.03427561 0.048084814 0.08493496 0.018145222 -0.059566 -0.08288014 -0.1400334
0.107247755 -0.11044473 -0.29315943 0.009205034 -0.048931457 -0.15596598 0.21980862 -0.26518217
-0.10694829 -0.037974168 0.067992784 0.11511314 -0.026101071 0.044801187 -0.0037724967 -0.008600572
-0.018985493 0.051960867 -0.03081733 0.017924039 0.06511761 -0.054361533 -0.053732347 -0.0012654287
0.018824898 -0.025036454 -0.09996254 0.030668428 0.006347572 -0.029778512 -0.11747117 -0.013391991
0.012481191 0.31635752 0.003205925 0.27837026 0.08536202 0.030243294 -0.029826738 0.25893316
0.10702168 -0.08026847 -0.04745644 0.034279108 0.048412092 0.16493505 0.024207361 -0.4066783

layer1.0.bn1.weight f4 [16]
00000000: 4160 bc3e fad2 123f 9e4a c63e 4d94 183f
00000010: 9d72 513e 6875 fc3e 9fc1 283f 0a4f 033f
00000020: 875c fb3e 660e d73e 16e0 2a3f eec2 2b3f
00000030: 0e93 623f b098 d03e 71b2 2a3f f817 393e
0.36792186 0.57353175 0.38728803 0.5960129 0.20453878 0.49308324 0.6592044 0.5129248
0.4909403 0.42003173 0.6674818 0.67094314 0.8850564 0.4074149 0.6667853 0.1807555

layer1.0.bn1.bias f4 [16]
00000000: 6cae 1e3d 5983 dbbc a8df 5dbd 4450 91be
00000010: 8682 c7bd 626a d43d eb13 123e fa7c aa3d
00000020: 97ee 1cbd f360 38bc 617b 993e 2ee4 a53e
00000030: 0b09 463e e118 463e db6a 673d 9d68 ae3b
0.03874056 -0.02679603 -0.054168373 -0.2838155 -0.09741692 0.103718534 0.1426541 0.08324619
-0.038313475 -0.011253583 0.29976943 0.3240065 0.19339387 0.19345428 0.05649839 0.0053225295

layer1.0.bn1.running_mean f4 [16]
00000000: db6f a7bd 71dd ecbe 798f 6c3d 57b0 673d
00000010: cdbd 4b3f d700 8abf 4998 a9be 0303 87bf
00000020: 6644 78bf 14d9 36bf c50b 8cbe 569f dcbe
00000030: 8c2e 27bf f605 09bf 5d65 d3be 99e6 8d3e
-0.081756316 -0.46262696 0.057754014 0.056564655 0.7958649 -1.0781506 -0.33123997 -1.0547794
-0.9697937 -0.71424985 -0.2735273 -0.43090314 -0.653054 -0.5352472 -0.41288272 0.27714995

layer1.0.bn1.running_var f4 [16]
00000000: 9741 773e 2511 7f3e e1b0 463e c3af b83e
00000010: 3043 a63e 2a60 cc3e a635 af3e 24b1 b73e
00000020: e1ef bb3e 2388 5e3e 5623 813e ef07 023e
00000030: 5699 f23e 0890 693e 191b c23e 92a0 a73e
0.24146114 0.24908884 0.19403411 0.36071596 0.32473135 0.39917117 0.34220618 0.35877335
0.3670645 0.2173162 0.25222272 0.12698339 0.4738261 0.2280885 0.379113 0.32739693

layer1.0.conv2.weight f4 [16, 16, 3, 3]
00000000: b937 a9be 2874 c0bd 1436 a7bc c882 25be
00000010: 4eeb 44bd dbe6 5cbb 434c ddbe bf63 99bd
00000020: b3d3 b3bc 749d 0c3e 8e93 4dbd 24e3 d5bd
00000030: 5702 813e 95d8 81bd f759 d7bd 02ea e93d
00000040: a33d 3cbd 6589 423d fc91 d6bd 4269 643d
00000050: e7f7 cc3c 9429 acbd fce1 da3d ed38 f93c
00000060: ffc2 f63b 2416 063e 7b0f c0bd 1ce6 ff3c
00000070: 68e6 9e3d 00a2 94ba 4661 8a3d c7c6 7d3c
00000080: 3e4e 95bd 1e8a 6e3d a881 8abd 59e5 91bb
00000090: 5f86 b73c 7030 34be 61fc c9bc 2aa8 ec3d
000000a0: b7c0 bdbd 3be6 e1bd 1b2e d3bc 5827 f3bd
000000b0: 1459 b1bd ced3 a0bd 96e7 73bc b26b c73d
000000c0: c02f fb3d dd57 88bc 55ea fe3d ef99 843d
000000d0: 41ba dd3d ed2e 943c a813 75bd 998b e7bd
000000e0: 521d ca3c 9cb2 c7bb 764f 4fbd c249 f1bd
000000f0: 829f bebd 48fb 823c 731f e43d a05f 863d
00000100: 1680 b93b 9d09 00bd 6eba d93c 63f0 7d3d
00000110: cbef 11bd 68ca 55be 570a c73c 6f3a 903d
00000120: 516a 243e 96cc 903e 360f 7f3e c0ab 5dbe
00000130: d878 86bd 7b66 053d 134a 52be f3a5 27bc
00000140: e9e7 f5bd 14f8 d5bc cf64 0e3c 6292 d2bd
00000150: d7df 40be a2b0 e43a 8b93 82be 7c12 4ebd
00000160: a87e 193c e65f 56bd b6fc c9bc 71da f63c
00000170: 8fc0 623d 707a 1abe 1342 d7bc 8b59 ba3d
00000180: 6436 e9bc 7306 da3d f4ba 833e 3e72 acbc
00000190: 76df 323d 3671 a33d eddb 98bc f787 d6bd
000001a0: e954 30bc 2138 ccbd f452 10be d261 a4bd
000001b0: c374 023e 0783 673d 82fe e2bd 765e 92bd
000001c0: 1316 5dbe bb9f 913d 3227 16be 4b52 15bd
000001d0: e1b8 8ebd 7cdb a53e 1990 013e bedc 0abe
000001e0: f31a 023e e0c2 a5bd 8ed9 1dbe 1e7c f03c
000001f0: 33a1 b33d 19ee 923e ac0f 403c 4796 393e
00000200: 22ff 183b c96c edbd e629 c9bd c718 d3bd
00000210: bd46 3ebe bf01 2e3c da10 4e3d 8ac1 d2bd
00000220: c5d4 3bbe fa78 96be ba2f c2bd cf70 8fbe
00000230: 28e9 bcbe b92c 3bbd 9726 7cbe 64d7 9fbe
00000240: 9041 4bbe 8c4e 0fbe d780 8dbd 8ba4 c63c
00000250: 24a7 08be a269 f93d a600 053e 53f9 293e
00000260: 88a5 093e 3cba f9bd 436b 4f3d e7a4 853e
00000270: 1111 2bbe e618 28be 6553 103e 00e5 74be
00000280: b216 c0bd 027a 023e 45f8 a73d 1e17 143e
00000290: 12c1 403e 7c7d 023d 5ee2 3d3e c226 d13d
000002a0: 34ea dabd b8a4 6b3d 3c17 cd3c 5c0e 443e
000002b0: ef53 1b3d 643d a13d b316 c93d 4fcf 03bc
000002c0: 079e 1e3e f8e6 903d 9e93 503b 61c1 e93d
000002d0: bb4d 503e 9574 913e 5e0c 333e f3e2 083d
000002e0: 9d82 463e 9986 343e 1b1c fabc b7f0 d33d
000002f0: ee21 213e 2385 0f3c e1c7 90bd a9ff 35be
00000300: bfeb 2f3e 1489 d53d 181f c1bd db5b 9c3d
00000310: 6381 c0bd c0b2 59bd d6d4 fabc b892 263e
00000320: a1f7 b33d b474 8fbd 730a 503c 2280 213d
00000330: cc3a 5abe fd67 5a3d 3fb4 d33d aa96 6c3d
00000340: add1 413d 82fc 13be 6590 0b3e f6ab ac3c
00000350: ea33 513d 5aed 403b 24e4 903d 01e5 78bd
00000360: 07ec 03be 9713 9d3d d400 ea3d da46 f339
00000370: 1ebe b03d 5feb ecbc a23e 19be fdb5 ddbc
00000380: 1ba0 09be c350 ec3d e4f7 123d d703 32be
00000390: 008e d13d e48f ec3d 76ac 30bd 1f5e b43d
000003a0: 8dc9 983d c75d 63bd aed5 6c3d d9bf 333d
000003b0: e9f3 fabb 5911 e03d e056 4dbc fec9 733c
000003c0: 447e 273d f3b5 60bd fb9d 4abe 9e80 f5bd
000003d0: a818 8bbd 313d 9cbb 6d82 90bd d4c4 d33d
000003e0: 9759 cf3d 3bad 38bd 352b 923d 1214 913d
000003f0: 2d06 00be 9b76 06bd 6dbb 4c3d 8d82 fcbd
-0.33050326 -0.09397155 -0.020411529 -0.1616317 -0.048075967 -0.0033706937 -0.43222246 -0.07489728
-0.021951532 0.13731939 -0.050189547 -0.10443714 0.25197098 -0.06340138 -0.10515206 0.114215866
-0.04595722 0.04749431 -0.10477063 0.055764444 0.025020553 -0.08406368 0.10687634 0.030422652
0.0075305696 0.13094383 -0.09377953 0.031237654 0.0775879 -0.0011339784 0.06756835 0.015489287
-0.07290314 0.058237188 -0.06763011 -0.004452389 0.02240294 -0.17596602 -0.024656476 0.11555512
-0.09265273 -0.11030241 -0.02577882 -0.118727386 -0.086595684 -0.078528985 -0.014886757 0.09737338
0.12264967 -0.016643459 0.12447039 0.06474673 0.10826541 0.018088782 -0.0598332 -0.11305923
0.024672184 -0.00609429 -0.05061289 -0.11781646 -0.093077675 0.01598896 0.11138811 0.06561208
0.005661021 -0.031259168 0.026578154 0.06199683 -0.035629075 -0.20877993 0.024296923 0.07042395
0.16056181 0.28281087 0.24908146 -0.21647549 -0.06566018 0.032568436 -0.2053607 -0.0102324365
-0.12007124 -0.02611927 0.008691027 -0.102818266 -0.18835388 0.001744766 -0.2550319 -0.050310597
0.009368576 -0.05233755 -0.024656635 0.030133458 0.05535942 -0.15085769 -0.026276624 0.0909911
-0.028468318 0.10645761 0.2572857 -0.021050569 0.04367014 0.07980578 -0.018659556 -0.10475152
-0.010762432 -0.09971643 -0.14094144 -0.0802647 0.12739854 0.05652144 -0.110837 -0.07146923
-0.21590452 0.07110544 -0.1466339 -0.036455434 -0.069688566 0.32394016 0.12652625 -0.13560769
0.12705593 -0.0809381 -0.15415022 0.029356059 0.08770981 0.2869728 0.0117224865 0.18123733
0.002334543 -0.11593015 -0.098224446 -0.1030746 -0.18581672 0.0106205335 0.05030904 -0.10290821
-0.18342884 -0.29389173 -0.09481759 -0.28015754 -0.36896634 -0.045696948 -0.24624096 -0.31219018
-0.19849229 -0.13994807 -0.0690934 0.024248382 -0.13345009 0.12178351 0.12988529 0.16599016
0.13442051 -0.121937245 0.050639402 0.26102373 -0.16705729 -0.16415748 0.14094312 -0.23915482
-0.09379329 0.12741855 0.082016505 0.14461944 0.1882365 0.031857952 0.18543383 0.102124706
-0.10689202 0.057530135 0.025035493 0.19146103 0.037921842 0.078730375 0.09818783 -0.008045032
0.1548997 0.07075304 0.0031826268 0.11413837 0.20342152 0.28409258 0.17485186 0.03341956
0.19385763 0.1762947 -0.03053098 0.10348647 0.157356 0.00875977 -0.07069374 -0.17773308
0.17179774 0.10426536 -0.09429759 0.076347075 -0.093996786 -0.053148985 -0.030619066 0.16266906
0.08787466 -0.07004681 0.012697804 0.039428838 -0.21311492 0.053321827 0.103371136 0.057760872
0.047319103 -0.14451793 0.13629301 0.021078091 0.0510749 0.0029438348 0.07074764 -0.06076527
-0.12883006 0.07669752 0.11425939 0.0004640136 0.08630012 -0.028920827 -0.14965299 -0.027064318
-0.13439982 0.115388416 0.03588094 -0.17384277 0.102321625 0.115508825 -0.04313322 0.08807015
0.07460318 -0.055509355 0.05782097 0.043884132 -0.007658471 0.10940809 -0.01253292 0.014879702
0.0408919 -0.05486102 -0.19786827 -0.119874224 -0.06791812 -0.004768037 -0.07056127 0.10340276
0.1012451 -0.04508708 0.07137147 0.07083906 -0.12502356 -0.032827955 0.04998343 -0.12329588

layer1.0.bn2.weight f4 [16]
00000000: 929d 963e eb8f 9e3e 3d74 de3e 2cb9 033f
00000010: 9a1d 1e3f 0430 3b3e c3a5 873f 12c0 2f3f
00000020: ae8f db3e ff18 083f 50e4 243f 6644 033f
00000030: 3899 af3e afb8 863f 3541 543f 8868 0c3f
0.29417092 0.30969176 0.43448058 0.51454425 0.6176392 0.18280035 1.0597461 0.6865245
0.42883056 0.5316314 0.6441088 0.5127624 0.34296584 1.0525111 0.82912 0.54847

layer1.0.bn2.bias f4 [16]
00000000: 57f7 453e 6b8c 893d 34a7 7bbd 9846 19be
00000010: 36c9 00be 1f49 44bc 3a7b 273d da8f 6fbd
00000020: 2e0f 1abe af84 9dbc c939 833d b049 ac3d
00000030: 478a 4dbe 9981 573e 5a90 bf3d bcab 2fbe
0.19332634 0.06716236 -0.061438754 -0.14968336 -0.12576756 -0.011980324 0.040889002 -0.058486797
-0.15044853 -0.019228308 0.06407506 0.08412492 -0.2007228 0.21045531 0.09353705 -0.17155355

layer1.0.bn2.running_mean f4 [16]
00000000: 9c21 dfbe a412 483e b813 8a3c 87ac c33e
00000010: a7d9 c2be 7884 053e 7009 7cbe ccac e53d
00000020: e835 db3e 5a43 ffbe 8d96 a83e 39ee 34be
00000030: 4b1b c2be e675 57be 7ced d1bc f6ce 9439
-0.4358033 0.19538361 0.016855106 0.38217565 -0.3805668 0.13038814 -0.24612975 0.11214599
0.42814565 -0.49856073 0.3292736 -0.17669 -0.37911448 -0.21041068 -0.025625937 0.00028382958

layer1.0.bn2.running_var f4 [16]
00000000: ba93 6b3e fc9a 6e3e 67eb 9b3e 3aa0 8c3e
00000010: 7c56 943e b837 543e 0080 f83e 5ffd 883e
00000020: a7af 623e 24e6 4a3e a043 803e 5b5a 963e
00000030: 6939 ca3e b1ef bc3e 651f 503e 1091 523e
0.23005572 0.2330131 0.30453035 0.27465993 0.28972232 0.2072438 0.48535156 0.26755807
0.22137319 0.19814354 0.25051594 0.2936581 0.39496925 0.3690162 0.20324476 0.2056315

layer1.1.conv1.weight f4 [16, 16, 3, 3]
00000000: ea32 fdbd 1917 923d 6a5a c03d a46c 30be
00000010: f93e 01bd ae6f 033e 169b bfbd 6522 1cbd
00000020: 72db fbba ce2a 1f3b 1e5f a8bd d899 bc3d
00000030: 8820 6abd 1438 54be 3a6f ca3c 0886 18bc
00000040: 6641 ffbd 11c2 9d3c 7f6f 2dbd bdbb c7bb
00000050: f7e0 96bc 3d3a 8ebb e834 52bd 757c 06be
00000060: db7f 4f3d 32d7 25be 5f0a 9bbd f7ff 223d
00000070: 59f4 1dbe bacd 01be e132 213e c265 3cbd
00000080: 86ec 71be 64d2 3d3d d97a 98bd c0ff 50be
00000090: 6f14 013d 94e5 2fbe 6162 31bc ecac 6d3d
000000a0: 4d64 8abe a27b b4bd e386 eebc e529 79bd
000000b0: c5ed f3bd 8904 293d 9faf d2bd 1372 93bd
000000c0: e755 a6bc 11b6 2ebe e9d0 05be e53b 2ebe
000000d0: 8db7 45be 1204 55be 20c2 14be 89a0 ae3d
000000e0: 1c28 1cbe 763e 84bd 4ef6 1d3e 4f93 2bbc
000000f0: 343c 93bb 68e5 4cbc 9c77 ae3c 2d18 21be
00000100: 52b3 f7bd 12cd 42bd c191 673d 7191 083e
00000110: 1276 7c3d 640f aa3d fd3f 0d3b 604b 62bd
00000120: 6ae2 0f3d eaab 7f3d bf92 923d 038b 1c3d
00000130: bdaa 163e 53db 2e3d ab8d 2d3d 66db 043d
00000140: 5fd5 55bd b669 edbc 1516 023e e2dd 8f3d
00000150: 33d4 6f3c 43ed 0c3e 8e56 0b3d 9ed0 3dbc
00000160: 62b1 303c 3b57 103d b83c f43d 619c 03be
00000170: 3b1f 3e3d ae21 7a3d aa72 623c 2f56 0a3e
00000180: a004 91bd 7182 d9bd cadb 1ebd 4ecc b83d
00000190: 6307 6fbc 2b58 03be 774b 453d 1e72 183b
000001a0: 1b84 8ebd c074 40bd 390c 82bc c4c7 053a
000001b0: cb06 a3be 4149 ba3c 36bf 093e 38e9 a9be
000001c0: 3315 533e 92fd a83e 494a 25be b78e 4fbd
000001d0: 9645 893e 3497 08bc 42c8 51be 6c5f 3f3d
000001e0: 9784 28bd b6ad 7abe b7a9 2cbc 7514 923c
000001f0: 15da 3abe f8a0 a8bd ec36 df3c a762 1a3e
00000200: 5305 6bbd d618 7abd 4341 7e3d 66be 2f3e
00000210: 48e9 3bbd f1a4 d03d 2b00 d73d 7d87 553d
00000220: abe0 7cbc 0906 eebd ccaf 6f3d 3701 e93d
00000230: e73c a23c 074f a93d b3fe 313e 5f96 023e
00000240: f80b 3abe db99 46be fb87 49be 2be3 54bd
00000250: 2e8f 48be fe09 4dbe 1259 ecbc 581f 87bb
00000260: 44d7 793c b314 05be 84b4 f4bd 5b5b 76be
00000270: ce43 98bc a3ab ba3c bc57 85bc 7c53 943d
00000280: 95a8 823b 81f4 e73c 1a62 fbbc b89e 913c
00000290: d87f a23d b441 15bd 9af3 fe3d 3a88 b4bb
000002a0: 7c5a ad3b 61c4 553d 8e0d 61bd 87bb 3fbd
000002b0: a6b0 dcbc fe8c 6bbc cc2e 17bd 30ea 3bbd
000002c0: 534c 893d aa8c 01bc b657 f5bd 6a83 6e3d
000002d0: 4142 3dbe 4ad3 303e e864 33bd 4dcf b2bd
000002e0: d73c 1a3d 7477 fc3d 4f98 d7bb a4c5 55bd
000002f0: 7e75 843d 8053 1cbe b12f dabd 136a 3c3c
00000300: 12e3 62be 72a0 94be 216b 34be 9711 02be
00000310: 0dec 8abe 6df5 44be e684 01be ea07 6cbe
00000320: 50dc 2fbd 8c8d 823d d869 2bbe d9ea 313c
00000330: aaeb 9f39 f97d ca3b 2e1e 22be 30b6 e2bc
00000340: 669e dbbd 3dc5 9dbd 826e 813d cb54 713d
00000350: e2f9 3dbc ed2a 883d bda0 3cbd 63b3 943d
00000360: ff2c 123e 2c98 8cbd d6ae e13d a57f 903d
00000370: 73f6 2bbe 0673 893d 918f 193d 28fb 13be
00000380: b488 15be cd20 113d fd22 7e3d 3f7a aa3d
00000390: 8d5b 193e 3ab4 723d b6c3 2dbd 6d41 c43d
000003a0: 33a2 2b3e b73b f23d 3e08 3dbc 2fe0 42be
000003b0: aa24 a5be 2331 0f3e 3713 533d c3e3 08be
000003c0: 55f2 043d b935 6f3b 5540 31bd 1959 9c3d
000003d0: 6199 1c3e cc89 04bd e0ca c73d ed76 083e
000003e0: 1488 bc3c 25df 8ebb 587a 453d 1a96 853d
000003f0: 8371 713c e003 15be 67b9 c63d ea2c 0f3d
-0.12363227 0.07133312 0.09392245 -0.17228943 -0.031554196 0.12835571 -0.09355752 -0.03811874
-0.001921518 0.0024286988 -0.08221267 0.09209031 -0.05715993 -0.20724517 0.02471124 -0.009309299
-0.12463646 0.019257577 -0.04234266 -0.006095378 -0.018417818 -0.0043404386 -0.051319987 -0.13133414
0.05065904 -0.16195372 -0.075703375 0.03979489 -0.15425242 -0.12676135 0.15742065 -0.04599548
-0.23625383 0.046343222 -0.07445306 -0.20410061 0.031513628 -0.17177421 -0.010826678 0.05802624
-0.27029648 -0.088126436 -0.029117053 -0.06083097 -0.11910585 0.04126409 -0.10287403 -0.07199492
-0.020304633 -0.1706164 -0.13067974 -0.17015035 -0.193083 -0.20802334 -0.14527178 0.085267134
-0.15249676 -0.06457226 0.15425989 -0.010472133 -0.0044932608 -0.012505867 0.021297269 -0.15731879
-0.120947495 -0.04755885 0.056535486 0.13336731 0.061636038 0.08303717 0.0021553033 -0.055247664
0.035128035 0.06241981 0.07156896 0.03821851 0.14713569 0.042689633 0.042371433 0.032435797
-0.05220544 -0.028981071 0.12703736 0.07024743 0.014637995 0.13762383 0.03401809 -0.011585383
0.010784479 0.03523944 0.11925644 -0.12852623 0.046416502 0.061067276 0.013821283 0.13509439
-0.0708096 -0.10620583 -0.038783826 0.09023343 -0.0145891635 -0.12826602 0.048167672 0.0023261379
-0.06958791 -0.04698634 -0.015874969 0.0005103315 -0.3184112 0.022740008 0.13451847 -0.33185744
0.20613556 0.3300596 -0.16141619 -0.050673213 0.26810902 -0.008336831 -0.20486549 0.04672186
-0.041142073 -0.24480328 -0.01053851 0.01783202 -0.18247254 -0.08233827 0.027247868 0.15076695
-0.057378124 -0.06105884 0.062073957 0.17162475 -0.04587677 0.1018771 0.10498079 0.052131165
-0.015434424 -0.11622245 0.058517262 0.11377185 0.019804431 0.082670264 0.17382316 0.12752675
-0.18168628 -0.19394629 -0.19680779 -0.051974457 -0.19585869 -0.20023343 -0.028851066 -0.0041236095
0.015249077 -0.12996177 -0.11948493 -0.24058287 -0.01858702 0.02278692 -0.016277187 0.07242486
0.0039873817 0.02831483 -0.030686427 0.017775878 0.079345405 -0.036439613 0.12448807 -0.0055094035
0.0052903276 0.052189235 -0.054944567 -0.0468097 -0.026939701 -0.014376877 -0.036909863 -0.045877635
0.06704011 -0.007907072 -0.1197962 0.058230795 -0.18482305 0.172681 -0.043797404 -0.08730946
0.037655678 0.123274714 -0.006579436 -0.052190438 0.06467722 -0.15266228 -0.10653628 0.011499899
-0.22156933 -0.2902866 -0.17618991 -0.12702022 -0.27133217 -0.19234248 -0.12648353 -0.23049894
-0.042934716 0.06374654 -0.16739595 0.010859215 0.00030502427 0.006179568 -0.15831825 -0.027674764
-0.107235715 -0.07703636 0.06319906 0.058918756 -0.011595221 0.066488124 -0.04605173 0.07260778
0.14274977 -0.06864962 0.110196754 0.07055596 -0.16793232 0.06711392 0.03749043 -0.14451277
-0.1460293 0.035431672 0.062045086 0.08324098 0.1497633 0.05925391 -0.042422973 0.095827915
0.16761093 0.11827796 -0.01153761 -0.19030832 -0.32254535 0.13983588 0.051531997 -0.13368134
0.03245767 0.0036500527 -0.043274242 0.076341815 0.15292884 -0.032357976 0.09755492 0.13326617
0.023014106 -0.004360097 0.04821238 0.0652277 0.014736536 -0.1455226 0.097033314 0.034954943

layer1.1.bn1.weight f4 [16]
00000000: 4493 043f ac5c 973e 8f48 313f d529 da3e
00000010: 54fa 7e3e b2c7 e63e e466 823e 505b d03e
00000020: 7967 d83e 4df1 093f c22b 193f f648 2c3f
00000030: 3c26 893e 8717 3a3e 1abc ee3e 109e 9d3e
0.5178721 0.2956289 0.6925134 0.4261004 0.2490018 0.4507423 0.25469124 0.40694666
0.42266443 0.5388382 0.59832394 0.6729883 0.26786983 0.18173037 0.46627885 0.30784655

layer1.1.bn1.bias f4 [16]
00000000: bce5 12be c663 babd 6ee3 b0bd 2f12 e8bb
00000010: 252f b1bd 2eb1 70bd 5447 2fbe 277e 5ebd
00000020: 1b41 92bc 2272 7abd cd66 b8bc 4afd 56bc
00000030: ba0c 2fbd 33f0 a6bd 854f babd e327 e8bd
-0.14345449 -0.091010615 -0.08637129 -0.007082246 -0.0865157 -0.05876272 -0.17117053 -0.054319527
-0.01785331 -0.061144 -0.022509957 -0.013121912 -0.042736746 -0.08151283 -0.090971984 -0.11335733

layer1.1.bn1.running_mean f4 [16]
00000000: 37dd 6fbf b8d9 51bf 9dd7 49bf 78cd 24bf
00000010: adaa 25bf f62f 87bf 7248 ce3f b5f6 82bf
00000020: 3097 3ebd 6ca3 f6be 0120 a4bf e60a adbe
00000030: 3710 98be c3f7 95be c4c2 14bf 59d4 81bf
-0.9369692 -0.8197284 -0.78844625 -0.6437602 -0.64713556 -1.0561512 1.6115859 -1.0231539
-0.046530902 -0.48171556 -1.2822267 -0.33797377 -0.2969987 -0.2929059 -0.5810969 -1.0142928

layer1.1.bn1.running_var f4 [16]
00000000: 910e c93f a6a5 293f 084d 9b3f 83a8 823f
00000010: 6010 2b3f f82b 253f 65ae 903f 6ee4 ab3f
00000020: 4809 d63f 4134 473f 4d88 cc3f a22b 8c3f
00000030: 44cd f23e 7fe5 5e3f daf7 3740 0305 3c3f
1.570757 0.66268384 1.2132883 1.0207676 0.6682186 0.64520216 1.1303221 1.3429086
1.6721582 0.7781411 1.5979096 1.0950816 0.4742223 0.87068933 2.8745027 0.7344515

layer1.1.conv2.weight f4 [16, 16, 3, 3]
00000000: ca35 203b 3f56 3c3d d786 c53c 14e0 49bd
00000010: 413b 823d 1be2 a13d a307 22bd cafd e73d
00000020: 3ecc 873e cf1c 9fbd d9bb 3fbc a871 093d
00000030: 0147 fbbd 03b0 85bd 5980 1cba 8109 4e3d
00000040: 6963 4b3d 8bc8 10bb 4f93 babd eabe cbbc
00000050: 14e1 833c 3509 29be da65 58bd 7157 2a3d
00000060: f80f e7bd 5e43 58bd 6b2c 163b ffe6 093d
00000070: 37f3 a8bd cf2a 11be 2a54 173c 06f6 38be
00000080: 2c6f 5dbd b560 debd d4a3 2fbe eff8 6c3d
00000090: c376 363e afbb 3e3d d3d5 893d 906c a63d
000000a0: 1013 bc3c 8304 70bd df1b bfbd a611 f13c
000000b0: 2848 1bbc 7d99 1c3d 52d6 c4bd 9564 35be
000000c0: 4c1f 023d 907c 3cbd 1f82 61bd 25a7 253d
000000d0: ef86 8abd 0693 d93d c7fa b23b de09 39bd
000000e0: 7036 f1bd 1a06 39be 0b30 a6bd 0ba3 94be
000000f0: 5a6f 32bb 9278 89bd d199 23be a14a 913d
00000100: 2e1e 843d 7e11 6ebc 74a7 503e 62d7 a03d
00000110: e366 9dbd 311d 093e bc80 5a3b 1479 19be
00000120: 8aec 75be 69c1 97be a4dc 07be 0e4a 63be
00000130: 6a0e 2bbe 4096 8ebe 3bce 4bbd c654 693c
00000140: 9802 36bd 75ec 9dba d785 c2bd 0dcc b5bd
00000150: 74ff 60bd e667 9ebe 47f2 87bd 44d8 b1bd
00000160: 3531 b1bd bcd6 a4bd d9ce ad3d 1eb4 483e
00000170: 4905 0f3e f0cf 413d 2970 e93d 1b6c 6abd
00000180: 6d1f 543d 47f7 833d 9c9a 2f3c eb72 38bd
00000190: e389 7e3d 317c 7bbc 8dc1 1d3b 5f65 21bb
000001a0: 9dff 9d3c b480 673d 31ba f43d cc88 e43c
000001b0: d92d 8abd 7ef5 96bd a59b 2e3d d8a3 50bd
000001c0: 45fa d1bd a874 7b3a 47f7 703d 5e25 7bbd
000001d0: 96ef 333c 4ae5 c7bd e7a6 f0bd 6eac 3cbe
000001e0: 84cf ad3d 7c8f 64bd 080b 47be 2d55 ad3c
000001f0: 6a68 07be be46 86bd 3535 e7bd 25dd 3bbe
00000200: f72f 6bbe 0678 35be b4b5 78bd 3d08 57be
00000210: c701 b7be d86e 8ebe 6fa8 adbe 335a 663e
00000220: 7b72 2c3e 3563 f93d 8efe 873d c0a9 b9bc
00000230: 5dff a33b 111d c93c 9de0 76bd ef2d c3bc
00000240: f348 dfbb 6104 85bd b5c2 f7bd 3323 2c3c
00000250: 2c40 433e 53b0 54bd a9bc 293e 01a8 433d
00000260: ff21 82bd 4f99 abbd 6798 553d ddcb 5f3e
00000270: 4387 b1be 6a59 11be df68 a83d dd14 5fbe
00000280: 1154 4bbd c748 50bd e2b9 debc 27b8 d03d
00000290: ee46 423e 55e7 af3d d9f3 813d b31c 473d
000002a0: 0ff7 dbbc e59e d3bc d88d 8e3d d3e2 7fbc
000002b0: 3e72 a2bc c9c9 b0bd fea4 aa3c ef53 973b
000002c0: 039d d83d 5ec1 1fbe 87e0 933c df55 f1bd
000002d0: 3b5a 4ebe 8360 59be b5fd 84bd d35f b4be
000002e0: 6ba0 7dbd 2c36 3abc 3e64 63be 8878 6ebc
000002f0: 4251 613d 3bcd e3bd 3f1d 453d c3a7 703a
00000300: c357 f83a 491a e83d 7863 7a3d 9bd3 9ebe
00000310: 1de4 03be 250b 5abe 0a97 673e 2b0e 853c
00000320: f918 3b3b 07ed c43b 9c05 51be 86c7 47be
00000330: cb4f bfbd bd7f 46be 57bf 31bd c89c b6bc
00000340: 7181 98bb a62b aebd 1146 edbd 4bbd 30be
00000350: e9da 1a3e 5058 3fbe 4e05 4ebd 7656 ba3b
00000360: d3be 283e ce8b 893d d9f8 d03c 2533 c7bd
00000370: 0f6b 393c 663c 67bd 0f1d 783c 3c93 5fbe
00000380: 096f 2abe 53d3 5e3a 0a75 28bc 51ec 9b3b
00000390: 3079 a9bd 61f0 cbbd 49f2 f5bc 3b05 f1bd
000003a0: 9a85 dfbb f2ad 553d 5e84 0bbe 4d91 82bd
000003b0: 2927 09be 607e 14be b979 8abe c741 26be
000003c0: 54b6 91bd 7a0f f5bd 2d5b 93be e8a5 273e
000003d0: d680 5e3e bac8 ac3d cc1e cf3d cef0 143c
000003e0: 5a4b c1bc f48a 6fbd d5d1 ccba 9244 49bd
000003f0: 6292 9fbd 59d8 9a3c c51d 3a3e d36f 2fbe
0.0024446123 0.04598069 0.024112148 -0.049285963 0.06358958 0.07904454 -0.039558064 0.11327703
0.26523012 -0.07769167 -0.011702501 0.033555657 -0.12269402 -0.06527712 -0.0005970053 0.050302032
0.04965535 -0.002209219 -0.09110128 -0.024871308 0.016098537 -0.16507418 -0.05283151 0.041587297
-0.11282343 -0.05279862 0.0022914659 0.03366756 -0.082495145 -0.14176486 0.009236375 -0.180626
-0.0540611 -0.10858289 -0.17152339 0.05785459 0.17818742 0.046565708 0.06730237 0.081261754
0.022958308 -0.058598053 -0.09331488 0.02942736 -0.009477653 0.038232315 -0.09611191 -0.1771415
0.03176813 -0.04601723 -0.055055734 0.040442605 -0.06764018 0.106237456 0.005462024 -0.045175426
-0.11777961 -0.18068734 -0.08114632 -0.29030642 -0.0027227015 -0.0671245 -0.15976645 0.070943125
0.06451069 -0.014530538 0.20376378 0.07853581 -0.0768564 0.13390042 0.0033340892 -0.14987594
-0.24016014 -0.29639748 -0.13267761 -0.22196218 -0.16704717 -0.27849007 -0.049757224 0.014241403
-0.044436067 -0.0012048619 -0.09498184 -0.0887681 -0.05493112 -0.30938643 -0.066380076 -0.086838275
-0.086519636 -0.0804877 0.08486719 0.19599959 0.1396686 0.047317445 0.11398346 -0.057232004
0.051787782 0.06443649 0.010718014 -0.04503147 0.062143218 -0.015349434 0.0024071664 -0.0024627072
0.019286925 0.056519225 0.11949576 0.027897261 -0.06747026 -0.07371043 0.042628903 -0.050937504
-0.10252813 0.0009592273 0.058829572 -0.061314933 0.010982415 -0.0976053 -0.11750584 -0.18425152
0.08486846 -0.0558009 -0.19437802 0.021158779 -0.13223425 -0.06556462 -0.11289445 -0.18346079
-0.22967516 -0.17721567 -0.06072016 -0.20999236 -0.35743544 -0.27818942 -0.33917567 0.22495346
0.16840546 0.12177125 0.06640349 -0.02266395 0.005004807 0.024549993 -0.0602728 -0.023825614
-0.006814116 -0.06494976 -0.12097684 0.010506439 0.19067448 -0.05192597 0.16575874 0.047767643
-0.063541405 -0.08378851 0.052147295 0.21855111 -0.3467351 -0.14194265 0.082231276 -0.21785302
-0.04964072 -0.050850656 -0.027188245 0.10191374 0.1897237 0.08589045 0.063453384 0.048611354
-0.026851205 -0.025832603 0.06960648 -0.015618044 -0.019829866 -0.086322375 0.020830628 0.00461816
0.105768226 -0.15601107 0.018051399 -0.11783957 -0.20151608 -0.21228223 -0.06493703 -0.35229358
-0.061920565 -0.011365455 -0.22206208 -0.014555104 0.055009134 -0.11123129 0.048123594 0.0009180272
0.0018947053 0.113331385 0.061130017 -0.31020817 -0.12879987 -0.21293314 0.2261621 0.016242107
0.002854882 0.006009701 -0.20412296 -0.19509706 -0.09341391 -0.19384666 -0.043395367 -0.022291556
-0.0046541025 -0.08504419 -0.1158563 -0.1725971 0.1512257 -0.18686032 -0.050298028 0.0056865765
0.16479044 0.06716119 0.025509285 -0.09726552 0.011317029 -0.056454085 0.015143647 -0.21833509
-0.16643919 0.00085001177 -0.010281811 0.0047583957 -0.08275068 -0.09957958 -0.030022757 -0.11768576
-0.0068213465 0.05216784 -0.13624713 -0.0637537 -0.13393845 -0.14501333 -0.27045992 -0.1623603
-0.071148545 -0.119658425 -0.287805 0.16371882 0.21728835 0.08436723 0.10113296 0.009090615
-0.0235955 -0.058482125 -0.00156265 -0.04913766 -0.07791592 0.01890199 0.18175419 -0.17132501

layer1.1.bn2.weight f4 [16]
00000000: cedb 143f 7c81 d23e 9563 e43e c63f 293f
00000010: e2c7 cc3e 928d cf3e 1502 523f a967 113f
00000020: 71a3 3f3f 7007 0f3f 82b8 913e 49e0 9f3e
00000030: fc2b 043f 2a48 fd3e bf36 e43e 5660 6e3e
0.58147895 0.41114414 0.44607225 0.66112936 0.39996248 0.40537697 0.82034427 0.567988
0.74858767 0.55870724 0.2846108 0.31225803 0.51629615 0.4946912 0.44573018 0.23278937

layer1.1.bn2.bias f4 [16]
00000000: f2ac 563d 74f9 adbd e7ff a8bd db2c 35bd
00000010: c335 31be 6fdd 0c3e b536 9cbe e7af 39bd
00000020: 0984 be3d dc26 283e 5458 593e 9942 06be
00000030: 23f7 c4bd 28c1 b9be b52f dbbe 61a0 f63d
0.052411027 -0.08494845 -0.082519345 -0.04423223 -0.17305665 0.13756345 -0.30510488 -0.04533377
0.093025275 0.16421074 0.21225101 -0.13111342 -0.0961745 -0.3628018 -0.42809835 0.120423086

layer1.1.bn2.running_mean f4 [16]
00000000: 6cb8 05bf 9fc1 03bf 7031 f73e 3cd0 c0be
00000010: 01e4 03bf ca77 b3be 8f5c 183d 1adc dbbd
00000020: da4b 0a3e 356e afbe 7f42 8dbe 7d24 b73d
00000030: 4bcc e23e 6143 acbe 59a2 8a3d b8f6 4f3e
-0.5223453 -0.5146732 0.48279905 -0.3765887 -0.5151978 -0.3505233 0.037197646 -0.107353404
0.13505498 -0.3426377 -0.27589795 0.089425065 0.44296488 -0.33645156 0.067692466 0.2030896

layer1.1.bn2.running_var f4 [16]
00000000: b783 3f3e 1aca 123e 9e8b 593e 8b26 213e
00000010: eca1 e73d 6957 353e d138 6f3e 4d93 6e3e
00000020: e5d3 833e 48a5 283e b225 c93d 1c4c 193e
00000030: 739b 083e d58c ce3d 1945 bc3d fbd5 4d3e
0.18702589 0.14334908 0.21244666 0.15737359 0.11310181 0.17709126 0.23361517 0.23298378
0.257476 0.164693 0.09821643 0.1497044 0.13340549 0.10085455 0.09192867 0.20101158

layer2.0.conv1.weight f4 [32, 16, 3, 3]
00000000: f3d0 e43d 8c4a 1b3e e313 1bbd 1f0e 343e
00000010: 4799 563e 60d2 2d3d 1f15 6f3e 778e d93d
00000020: 5e7a 103d 4d39 223d 34dc 903d a2f3 8b3d
00000030: f259 9dbc f5f3 c03d 94eb cb3d 38fd d83d
00000040: bb2b 743c 2060 993d 72dc b73b 8da4 5bbd
00000050: 5e22 39bc 5649 cdbd 4d76 283d a812 b3bd
00000060: 4693 eebc 8f61 10bd 37d1 373c e5d9 4cbd
00000070: 0038 873d 60be b53c da24 583d 8699 d63d
00000080: 2abb 723c f62b 4e3d 9a0d f23d c8ed a7bc
00000090: 805d 983d f591 9cbd d007 11be 543f 44bd
000000a0: 8818 8abd 1917 99bd 80ed 6c3d c451 173c
000000b0: 044d 1cbd 8198 ebbc 6331 bc3d a89a a1bb
000000c0: 677e 343d 35d7 2f3e 1a1b 03bc fc78 a03d
000000d0: 6902 cb3c 8dc2 a03d 2806 b5bd 7bae dcbd
000000e0: c413 aebd 86be 91be a864 c8be f92a 9fbe
000000f0: c814 43be 46f2 cbbe 239b a9be 3fe1 873c
00000100: 2376 35bc 62f0 13bb 99e5 163d 7a19 4b3d
00000110: fa43 eb3c 7850 27bd c03d 083d 78da 833d
00000120: b337 73be 4b14 01be 64dc febd 199d 74be
00000130: 7486 69bd 81b4 82be 3ee2 e8bd c0e3 3ebd
00000140: faaf 23be c074 6d3d c613 db3d ab1a 033a
00000150: 5b03 973d 7840 013e 8f51 293d 08a6 e03d
00000160: b3b0 2b3d 2463 323d dd1d 623b 1bc8 72bd
00000170: 857e 303d 7af3 563d 8cae 34bd 4c4e 443c
00000180: 1637 3a3c 1a62 9c3c 6487 163c 383d d43d
00000190: c882 6a3c 4e90 e03b 0115 c93c 20db a93b
000001a0: 7f82 f5bd 4c6b 60bd 5b49 98bc 14ff 873d
000001b0: 6f89 b7bd d831 36be bd66 a73d d2c5 23be
000001c0: 2f17 68be 5a4f 22bd b2ca 74be 6b1e 30be
000001d0: c6b1 273c 81e3 65be c6d0 64be 77e5 2dbe
000001e0: 31bf 98be 9227 abbe 20e8 88be 948c 41be
000001f0: cf1d adbe 58a6 1dbe e886 96b9 be28 283d
00000200: 3d0c 853c b290 aa3c 6d3d b23c 325d 7ebd
00000210: e089 b63c fb12 c63b dfc1 53bd 3f90 02bd
00000220: da28 84bb f9b7 89bd aaf0 b6bc 33b1 2a3d
00000230: d854 c9ba 5352 173d 2457 52bd 6889 903d
00000240: 93ad 2bbd 6000 253d ca84 c1bc ec59 4c3c
00000250: aaa1 91bd abdb 333d f099 21bd 38c2 51bd
00000260: 4e26 7a3e a67f 24ba 1ed6 9dbd a3c4 63bd
00000270: e484 343d bbb8 0ebd 1f66 263c 042f ad3d
00000280: 4af5 4d3d cf01 3ebd 4ff6 39be 830a 18be
00000290: 5fca 04be c76b 57be 77b4 28be 94b7 d73d
000002a0: 40d4 dfbd 0517 053e 0a7d d13d 543e a13d
000002b0: 7565 9c3d b142 76be 91d7 cd3d f2d5 bbbd
000002c0: 642a d3bd 3c0d 243d d2ea 19be c485 a53d
000002d0: 78da 57be 6acc a2bc 3dfe 143e 2ee1 d0bd
000002e0: 5a5d 703e 8553 413e 7aee 353d 2760 1d3e
000002f0: e371 b7bd e95f c93d 9f2b 793d 2018 eebc
00000300: 3179 133d d385 a6bd 61c0 e83d 4137 79bd
00000310: 5af7 04be 8a5d c6bd 0caf 493d c3a1 0cbe
00000320: 0442 203d 9d27 6bbd 31d8 48be 72a2 163e
00000330: ba61 63bd cbe8 5b3e a00e e73d 8954 16be
00000340: df0c 47bd 3ea2 1bbd 8203 02be 2003 35be
00000350: a6e0 b33d 9f37 0bbe 00fc 543d 50f7 d23d
00000360: 1106 f13c c2ec 3bbe e150 13bc 78e3 37be
00000370: 180d 92bd 7b31 083d 7f4f 063b 83ac 49bd
00000380: 7cfb ed3c 5f6c 953d 1322 973d a368 1c3d
00000390: 73d1 093d 533a 37bd 1a0a 893d 9ec8 f13c
000003a0: 8553 723d ca6d b7bd 6dd4 33bd a696 093e
000003b0: da91 393e a657 0c3d cc32 3a3e 73bc a2bd
000003c0: 947a 2b3d f795 94bd 96f7 0fbe 54e8 7bbe
000003d0: 66f8 59be 37eb 9cbd e37e 96be 317b c3be
000003e0: 53ac e0bd 0cda bebd 5c15 9cbb d695 68bc
000003f0: 1524 79bd c8e9 adba 787e 873d d9d3 9d3d
0.111726664 0.15165156 -0.037860762 0.17583512 0.20956908 0.042436957 0.23347901 0.10622876
0.03527295 0.039605428 0.070732504 0.06833579 -0.019207928 0.09421531 0.09957042 0.10595173
0.014903004 0.074890375 0.005610996 -0.053623725 -0.011299698 -0.10023753 0.041128445 -0.08743793
-0.02912296 -0.03524929 0.011219314 -0.050012488 0.06602478 0.022185504 0.05276952 0.10478501
0.014815131 0.050334893 0.118190005 -0.020499125 0.07439709 -0.076450266 -0.14163136 -0.047911957
-0.0674296 -0.07475109 0.057843685 0.009235803 -0.038159385 -0.028759243 0.09189107 -0.0049317665
0.04406586 0.17171939 -0.008002067 0.07835576 0.024781423 0.078496076 -0.08839065 -0.10775467
-0.08499864 -0.2846567 -0.39139295 -0.31087473 -0.19050896 -0.39833277 -0.33126172 0.016586898
-0.011075529 -0.00225737 0.036840055 0.049584843 0.028718937 -0.040848225 0.033262014 0.06438154
-0.23751716 -0.12605397 -0.1244438 -0.23888053 -0.05701299 -0.2552834 -0.11371277 -0.046603918
-0.15985098 0.05797267 0.10697131 0.0005001227 0.07373687 0.12622249 0.041337546 0.10969168
0.04191656 0.04355158 0.0034502663 -0.059272867 0.04308941 0.05247829 -0.044111773 0.011981558
0.011365673 0.019089747 0.009187553 0.10363239 0.014313407 0.00685314 0.024546148 0.0051835924
-0.11987781 -0.054789826 -0.018589666 0.06640449 -0.0896176 -0.17792451 0.08173893 -0.15993431
-0.22665094 -0.039626457 -0.23905447 -0.17199104 0.010235256 -0.22450067 -0.22345266 -0.16982065
-0.29833367 -0.33428627 -0.26739597 -0.18901283 -0.33811805 -0.15395486 -0.00028710742 0.04105448
0.016241187 0.02082095 0.021757806 -0.062100597 0.02228254 0.006044743 -0.05169856 -0.031875845
-0.00403319 -0.06724543 -0.022331554 0.041672897 -0.0015360368 0.036943745 -0.051352635 0.07057458
-0.04191358 0.04028356 -0.02362289 0.012472611 -0.07110913 0.043910664 -0.039453447 -0.051210612
0.24428675 -0.00062751246 -0.07706855 -0.05560745 0.044072047 -0.03484414 0.0101561835 0.08456233
0.050282754 -0.046388444 -0.18160366 -0.1484776 -0.12967823 -0.21037208 -0.16475092 0.105330616
-0.10929155 0.12997063 0.102289274 0.07873216 0.07636539 -0.24048878 0.10050882 -0.09171666
-0.1031082 0.040051684 -0.15030983 0.080821544 -0.21079433 -0.019872863 0.14550109 -0.101991996
0.23473111 0.18879516 0.044416882 0.1536871 -0.08957269 0.098327465 0.060832616 -0.029064238
0.03600425 -0.08130994 0.11364818 -0.06084371 -0.12984982 -0.0968581 0.049239203 -0.13733582
0.039125457 -0.057410825 -0.1961372 0.14710405 -0.05551312 0.21475522 0.11282086 -0.14680685
-0.04859626 -0.037996523 -0.1269665 -0.17676973 0.08783083 -0.13595437 0.05199814 0.10301077
0.029421838 -0.18352035 -0.008991451 -0.17957866 -0.07131404 0.033250313 0.002049416 -0.049236786
0.029050581 0.07296061 0.07379546 0.038185727 0.033647012 -0.044733357 0.0669138 0.029514607
0.05916168 -0.089564875 -0.043903757 0.13436374 0.18122044 0.034263276 0.1818344 -0.079461
0.041864946 -0.07255166 -0.1405929 -0.24600345 -0.21286163 -0.07662051 -0.29393682 -0.38179925
-0.10970368 -0.09318933 -0.0047632884 -0.01419588 -0.060825426 -0.0013268525 0.06615919 0.07706422

layer2.0.bn1.weight f4 [32]
00000000: 7ca7 833f 4eaa c83e 5327 043f 1e78 b43e
00000010: 73a3 2d3f 8382 ff3e b333 aa3e 2b17 f33e
00000020: 4c6b 2e3f 8aea f93e 2d95 043f 585b d13e
00000030: 495c 083f 79d0 053f 3b1c 093f 9971 233f
00000040: 0868 cb3e b397 143f 8c1a b53e 5bc8 003f
00000050: a671 223f 8e30 243f dc4f 2c3f 7df5 ef3e
00000060: 0baf 473f 4719 253f 4687 3a3f 2ad2 373f
00000070: cae7 0e3f 97cf 043f 6886 433f 06f9 103f
1.0285487 0.39192432 0.51622504 0.35247892 0.6782753 0.4990426 0.33242568 0.47478613
0.6813247 0.48811752 0.51790124 0.40890002 0.53265816 0.5227123 0.535587 0.6384521
0.39727807 0.58043975 0.35371816 0.5030572 0.63454664 0.6413659 0.67309356 0.4686698
0.7800147 0.64491695 0.7286266 0.7180506 0.5582243 0.51879257 0.7637696 0.5662998

layer2.0.bn1.bias f4 [32]
00000000: d7ee 92bd 6d37 44be 7545 9bbd 0f61 05be
00000010: 063c 07bd 3d00 04be 3d71 fdbd d4c6 c2bd
00000020: b5f2 9dbe 89b3 31bd 7778 24bd c179 ca3d
00000030: 5bcc 1fbd 66e3 c2bd b0ca b93c 8026 8d3d
00000040: ffdd 00be 6469 49be 08b8 853c 2f54 d33b
00000050: 7035 4cbe 3018 8dbd 6a13 d1bc 8a91 ce3d
00000060: 31d7 cabd 8e83 1abd 5e78 fcbc 2700 48be
00000070: 5b75 133d e8e0 dcbd ace1 45be ee10 0abe
-0.07174461 -0.19161768 -0.07581607 -0.13025306 -0.033016227 -0.12890716 -0.12375114 -0.0951058
-0.30849233 -0.04338411 -0.040153947 0.09886504 -0.039013248 -0.09516029 0.022679657 0.06892109
-0.12584685 -0.1966911 0.016323105 0.0064492445 -0.1994226 -0.06889379 -0.025521953 0.10086353
-0.09904326 -0.037723117 -0.030819114 -0.19531308 0.03600059 -0.10785085 -0.19324368 -0.1348302

layer2.0.bn1.running_mean f4 [32]
00000000: 10f5 b8bf 315d 2ebe 0719 6f3f daa5 bf3f
00000010: 2d5e f9bf 0bbd e3be 05a9 c1bf a8ad 86bf
00000020: e01e adbf 0699 c2bf 56c7 74c0 11c8 073f
00000030: 7229 33bf 047c 2fbf e6fb 4f3f dda6 0ac0
00000040: aa7e e1bf 6ebd 3cbf ac67 69bb e4e8 623f
00000050: 61b2 bbbd 5e4d 23bf 058c 74bf 526d 08c0
00000060: 968a cfbf f4d7 49bf 3628 de3e 4fca 0640
00000070: e140 d1bf 477f 07c0 b874 00be e93d 873f
-1.4449787 -0.17027737 0.93397564 1.4972489 -1.9481865 -0.44480166 -1.5129706 -1.0521746
-1.3525047 -1.5202949 -3.8246665 0.5303965 -0.69985116 -0.6854861 0.8124374 -2.1664345
-1.761678 -0.73726547 -0.0035614772 0.8863661 -0.091648825 -0.6378993 -0.9552615 -2.1316724
-1.6214168 -0.78845143 0.43390054 2.106098 -1.6347924 -2.1171434 -0.12544525 1.0565768

layer2.0.bn1.running_var f4 [32]
00000000: 82ba 4740 5ccb 833f 58a9 a33f 0b32 ba3f
00000010: 9abd c23f 6923 af3f d348 783f 65d9 743f
00000020: e879 b63f b1f4 ba3f e301 ed3f f918 903f
00000030: 6cb5 0940 7191 643f de13 503f b7d1 d33f
00000040: 580b 863f 24ff 823f 7d7d bc3f e1cf d83f
00000050: 6bf3 bb3f 4077 a43f 2d8d d53f c6e5 1040
00000060: 418a ad3f 0657 d63f 2248 0040 75a8 ea3f
00000070: 17cd 9c3f 9c7f ae3f 8a91 b93f 2286 e33f
3.1207585 1.0296435 1.2786055 1.4546522 1.5214112 1.3682681 0.9698612 0.9564422
1.4255953 1.4605924 1.8516201 1.1257621 2.151698 0.89284426 0.81280315 1.6548375
1.0472212 1.0234113 1.4725796 1.693844 1.468366 1.2848892 1.6683708 2.2640243
1.3557817 1.6745307 2.0044026 1.8332659 1.2250088 1.3632693 1.449754 1.7775309
